…
VGG.py:71: UserWarning: Update your `Conv2D` call to the Keras 2 API: `Conv2D(512, (3, 3), padding="same", activation="relu")`\
  model.add(Conv2D(512, (3, 3), activation='relu', border_mode='same'))\
VGG.py:72: UserWarning: Update your `Conv2D` call to the Keras 2 API: `Conv2D(512, (3, 3), padding="same", activation="relu")`\
  model.add(Conv2D(512, (3, 3), activation='relu', border_mode='same'))\
Model: "sequential_1"\
_________________________________________________________________\
Layer (type)                 Output Shape              Param #   \
=================================================================\
zero_padding2d_1 (ZeroPaddin (None, 226, 226, 3)       0         \
_________________________________________________________________\
conv2d_1 (Conv2D)            (None, 224, 224, 64)      1792      \
_________________________________________________________________\
conv2d_2 (Conv2D)            (None, 224, 224, 64)      36928     \
_________________________________________________________________\
max_pooling2d_1 (MaxPooling2 (None, 112, 112, 64)      0         \
_________________________________________________________________\
conv2d_3 (Conv2D)            (None, 112, 112, 128)     73856     \
_________________________________________________________________\
conv2d_4 (Conv2D)            (None, 112, 112, 128)     147584    \
_________________________________________________________________\
max_pooling2d_2 (MaxPooling2 (None, 56, 56, 128)       0         \
_________________________________________________________________\
conv2d_5 (Conv2D)            (None, 56, 56, 256)       295168    \
_________________________________________________________________\
conv2d_6 (Conv2D)            (None, 56, 56, 256)       590080    \
_________________________________________________________________\
conv2d_7 (Conv2D)            (None, 56, 56, 256)       590080    \
_________________________________________________________________\
max_pooling2d_3 (MaxPooling2 (None, 28, 28, 256)       0         \
_________________________________________________________________\
conv2d_8 (Conv2D)            (None, 28, 28, 512)       1180160   \
_________________________________________________________________\
conv2d_9 (Conv2D)            (None, 28, 28, 512)       2359808   \
_________________________________________________________________\
conv2d_10 (Conv2D)           (None, 28, 28, 512)       2359808   \
_________________________________________________________________\
max_pooling2d_4 (MaxPooling2 (None, 14, 14, 512)       0         \
_________________________________________________________________\
conv2d_11 (Conv2D)           (None, 14, 14, 512)       2359808   \
_________________________________________________________________\
conv2d_12 (Conv2D)           (None, 14, 14, 512)       2359808   \
_________________________________________________________________\
conv2d_13 (Conv2D)           (None, 14, 14, 512)       2359808   \
_________________________________________________________________\
max_pooling2d_5 (MaxPooling2 (None, 7, 7, 512)         0         \
_________________________________________________________________\
flatten_1 (Flatten)          (None, 25088)             0         \
_________________________________________________________________\
dense_1 (Dense)              (None, 4096)              102764544 \
_________________________________________________________________\
dropout_1 (Dropout)          (None, 4096)              0         \
_________________________________________________________________\
dense_2 (Dense)              (None, 4096)              16781312  \
_________________________________________________________________\
dropout_2 (Dropout)          (None, 4096)              0         \
_________________________________________________________________\
dense_3 (Dense)              (None, 2)                 8194      \
=================================================================\
Total params: 134,268,738\
Trainable params: 134,268,738\
Non-trainable params: 0\
_________________________________________________________________\
Found 20000 images belonging to 2 classes.\
Found 5000 images belonging to 2 classes.\
[Compiling Complete]\
[Compiling Complete]\
[Training Started]\
Epoch 1/74\
2019-12-06 00:45:18.218153: I tensorflow/stream_executor/platform/default/dso_loader.cc:44] Successfully opened dynamic library libcublas.so.10.0\
…
